Models/autoencoder_weights/15min.ckpt (torch, 180262 bytes, 91 tensors)

encode.rnn_cell.gleak f4 [32]
-0.15798229 0.60395724 0.22869176 0.6933 1.0139121 0.012254343 0.12052471 0.39977008
0.036032595 0.76182926 0.986715 -0.072236866 0.7609996 0.6358407 0.08335065 0.12422344
0.48097965 0.58187944 0.41091123 0.22372729 0.21246487 -0.031219753 -0.10584328 0.6483702
0.50976384 0.8064547 -0.08448302 0.07655863 0.70472187 0.73002124 0.35381797 0.89900887
00000000: 1cc6 21be f19c 1a3f 2c2e 6a3e 1c7c 313f
00000010: dfc7 813f 71c6 483c a9d5 f63d aaae cc3e
00000020: ea96 133d 3e07 433f 5b99 7c3f ecf0 93bd
00000030: dfd0 423f 75c6 223f bfb3 aa3d dc68 fe3d
00000040: f742 f63e 0df6 143f f562 d23e c418 653e
00000050: 6490 593e 91c0 ffbc 5dc4 d8bd 97fb 253f
00000060: e27f 023f d173 4e3f 6f05 adbd c5ca 9c3d
00000070: a768 343f ace2 3a3f a127 b53e 7225 663f

encode.rnn_cell.vleak f4 [32]
0.115406506 -0.19028372 0.17050105 0.055207897 -0.12933943 0.15222134 -0.16769888 0.13233688
-0.051745486 0.22971214 -0.05662457 0.19154873 -0.24125142 0.025538007 -0.047206018 0.040110137
-0.05556763 0.19524296 -0.07954508 0.22764516 0.02945743 0.22832727 0.12831388 -0.2535001
0.0064937444 -0.04825371 0.039374933 -0.14128426 -0.051181532 0.16008238 0.06482475 0.02609153
00000000: 3f5a ec3d bcd9 42be d497 2e3e ad21 623d
00000010: 8e71 04be e9df 1b3e 41b9 2bbe 5283 073e
00000020: 13f3 53bd a939 6b3e 2aef 67bd 5a25 443e
00000030: 9d0a 77be 1535 d13c 195b 41bd 874a 243d
00000040: e29a 63bd c5ed 473e 88e8 a2bd d01b 693e
00000050: b550 f13c a0ce 693e b764 033e c4ca 81be
00000060: 7ac9 d43b afa5 45bd 9c47 213d d2ac 10be
00000070: baa3 51bd a3ec 233e d7c2 843d e8bd d53c

encode.rnn_cell.cm f4 [32]
0.75777113 0.3913763 0.7844972 0.5154393 0.27980062 0.6878445 0.41029552 0.7536317
0.61297625 0.65297157 0.6719854 0.72377825 0.52502704 0.56771964 0.53733903 0.34244353
0.7337966 0.630859 0.51110166 0.7615038 0.47498396 0.71621275 0.7396963 0.39457414
0.86172384 0.7385963 0.6904082 0.78895295 0.14506711 0.6302409 0.7037426 0.575641
00000000: 4afd 413f 7962 c83e cfd4 483f d4f3 033f
00000010: 0742 8f3e 9416 303f 4112 d23e 02ee 403f
00000020: 03ec 1c3f 2529 273f 3c07 2c3f 8849 393f
00000030: 2c68 063f 1356 113f 0d8f 093f c254 af3e
00000040: 18da 3b3f fa7f 213f 8fd7 023f eaf1 423f
00000050: 1931 f33e b859 373f bd5c 3d3f 9f05 ca3e
00000060: ef99 5c3f a614 3d3f 97be 303f d2f8 493f
00000070: 798c 143e 7857 213f 7a28 343f 355d 133f

encode.rnn_cell.sigma f4 [32, 32]
5.2158346 3.6477559 6.109229 7.070637 4.5509543 4.08409 7.4669127 7.386345
3.2705865 7.7290974 7.4211287 5.7629747 2.9986224 4.5385485 5.1745014 5.433934
5.584068 6.702407 4.7095613 6.9704595 5.8455863 3.7440412 3.5570557 3.8945327
7.7754807 4.849762 3.1388834 3.5396569 5.3958373 2.9990797 6.481078 3.1473165
5.5093966 3.334618 7.0163536 3.307949 3.5119739 7.213661 3.7374249 7.0114183
6.7893724 7.366005 7.3848195 3.9612868 6.887495 4.7869825 6.2980933 6.846677
6.8772445 4.684025 5.019083 4.0091724 3.0944283 4.1812706 4.004504 6.8984814
4.0047636 5.5920405 4.995569 6.6155663 3.6565526 3.6512225 4.0072227 5.683829
6.19606 6.678189 3.8221629 3.0265357 3.518502 4.9341 5.7365947 5.9654264
4.04943 7.140742 6.543185 7.2051005 7.035131 7.4704494 5.5269623 4.417401
6.885865 5.3611035 5.746251 4.523366 7.73024 7.0807037 6.032093 7.608666
6.482336 6.7745023 3.715733 6.6423383 5.6899986 6.5440145 3.5272431 7.965748
7.572295 7.6519704 7.2367215 7.884089 3.7439213 7.2939596 4.326488 6.1217766
4.6830397 6.1880074 7.397915 5.838133 3.875628 4.4034405 6.3838778 5.4989653
7.708464 7.409765 7.710062 3.631228 3.7583199 4.305834 7.632738 3.092423
7.012875 4.3319244 6.1716003 5.141958 4.021746 6.6525803 7.2124934 4.0334454
4.552725 6.191171 3.2319613 5.5685596 6.4985657 6.125637 6.668311 7.54182
7.69668 5.724687 3.9691682 4.3950744 4.0098495 5.304152 6.232681 6.899923
3.3465712 4.660833 7.0589914 5.059689 7.2216578 3.7321026 7.042188 5.950332
5.8702593 3.378146 4.516556 7.088302 6.3102903 5.669039 7.820868 6.0265427
4.8950143 7.1496305 4.540582 4.121891 5.981424 7.9600153 3.4457612 3.683926
4.482257 6.4118876 3.1179936 3.0006819 7.78237 3.589514 3.9364944 3.1584527
3.8919456 4.341025 7.2308426 5.412524 7.390718 6.3206744 3.685769 3.3650222
6.0295825 6.7161875 6.2067165 6.706808 7.0643196 4.609783 3.3989708 5.1111546
6.0370235 3.9516573 4.9354267 7.880154 3.9066632 3.5678763 7.513393 5.3358536
7.524995 6.550267 3.6843793 7.1136937 6.929553 5.900076 3.044115 7.633353
3.4528737 5.5398846 3.6403651 4.4676313 4.0501966 7.5538273 7.5103836 5.1408796
6.308076 6.9488783 4.7342954 5.16006 6.1746473 6.362946 4.355479 3.884329
7.8566594 7.5020003 4.7332773 7.520092 6.562272 5.2798285 4.117366 4.194645
7.242938 6.956503 5.824139 7.8506174 3.8052313 5.390236 3.9079428 7.97564
5.0570545 6.954379 3.240221 3.020965 5.2940207 5.7988124 5.9832945 6.279584
6.7951937 7.5178704 7.7664666 7.2300386 6.7960033 4.3762255 4.494232 4.3242865
00000000: 1ee8 a640 d574 6940 ce7e c340 a942 e240
00000010: 6ba1 9140 deb0 8240 f3f0 ee40 f05c ec40
00000020: 4a51 5140 c454 f740 e379 ed40 4a6a b840
00000030: 6ee9 3f40 ca3b 9140 8495 a540 cae2 ad40
00000040: afb0 b240 1e7a d640 bab4 9640 010e df40
00000050: 0b0f bb40 5f9e 6f40 cda6 6340 0640 7940
00000060: bdd0 f840 4031 9b40 77e3 4840 bd89 6240
00000070: b3aa ac40 ecf0 3f40 fe64 cf40 a26d 4940
00000080: fa4c b040 626a 5540 f885 e040 70b5 5340
00000090: 2ec4 6040 50d6 e640 f831 6f40 8a5d e040
000000a0: 8a42 d940 50b6 eb40 7150 ec40 b985 7d40
000000b0: 5c66 dc40 f62e 9940 fb89 c940 fa17 db40
000000c0: 6312 dc40 88e3 9540 549c a040 244b 8040
000000d0: 1d0b 4640 f8cc 8540 e624 8040 5cc0 dc40
000000e0: 0627 8040 fff1 b240 b4db 9f40 b8b2 d340
000000f0: f504 6a40 a1ad 6940 2b3b 8040 ede1 b540
00000100: 2046 c640 b9b3 d540 519e 7440 c3b2 4140
00000110: 232f 6140 26e4 9d40 2f92 b740 c6e4 be40
00000120: ee94 8140 f580 e440 c661 d140 2f90 e640
00000130: cb1f e140 ec0d ef40 e0dc b040 595b 8d40
00000140: 0259 dc40 298e ab40 4ae1 b740 6abf 9040
00000150: 205e f740 2095 e240 e806 c140 317a f340
00000160: 4c6f cf40 b9c8 d840 92ce 6d40 098e d440
00000170: 7814 b640 9168 d140 5abe 6140 68e7 fe40
00000180: 3e50 f240 f1dc f440 3993 e740 754a fc40
00000190: 689c 6f40 1e68 e940 9772 8a40 98e5 c340
000001a0: 76db 9540 2804 c640 b8bb ec40 fcd1 ba40
000001b0: 4a0a 7840 fce8 8c40 ba48 cc40 86f7 af40
000001c0: bdab f640 cb1c ed40 d4b8 f640 0a66 6840
000001d0: 5088 7040 64c9 8940 643f f440 42ea 4540
000001e0: 7969 e040 209f 8a40 c07d c540 ec8a a440
000001f0: 25b2 8040 f0e1 d440 bfcc e640 fc11 8140
00000200: ecaf 9140 131e c640 74d8 4e40 a431 b240
00000210: 40f4 cf40 3805 c440 ce62 d540 9756 f140
00000220: 344b f640 a330 b740 da06 7e40 73a4 8c40
00000230: b050 8040 9dbb a940 1f72 c740 2bcc dc40
00000240: 392e 5640 8b25 9540 42e3 e140 f9e8 a140
00000250: d217 e740 c5da 6e40 9b59 e140 1f69 be40
00000260: 2ad9 bb40 8b33 5840 a087 9040 5fd3 e240
00000270: e6ed c940 c468 b540 8d44 fa40 70d9 c040
00000280: f5a3 9c40 c6c9 e440 734c 9140 88e6 8340
00000290: d367 bf40 72b8 fe40 5a87 5c40 72c5 6b40
000002a0: a66e 8f40 2f2e cd40 358d 4740 2c0b 4040
000002b0: 2d09 f940 99ba 6540 86ef 7b40 1724 4a40
000002c0: a315 7940 ade9 8a40 1063 e740 6633 ad40
000002d0: c380 ec40 f742 ca40 a4e3 6b40 865c 5740
000002e0: 57f2 c040 02eb d640 6c9d c640 2c9e d640
000002f0: e80e e240 5883 9340 bd88 5940 948e a340
00000300: 4c2f c140 f4e7 7c40 04ef 9d40 392a fc40
00000310: c506 7a40 1658 6440 b76d f040 50bf aa40
00000320: c2cc f040 ca9b d140 dfcc 6b40 61a3 e340
00000330: e6be dd40 6ccd bc40 c8d2 4240 6e44 f440
00000340: e2fb 5c40 bc46 b140 befb 6840 d6f6 8e40
00000350: 369b 8140 f4b8 f140 1055 f040 1682 a440
00000360: c2db c940 365d de40 597f 9740 361f a540
00000370: b696 c540 419d cb40 1560 8b40 d998 7840
00000380: c169 fb40 6310 f040 0277 9740 98a4 f040
00000390: 22fe d140 5bf4 a840 76c1 8340 883a 8640
000003a0: 26c6 e740 ac9b de40 595f ba40 4238 fb40
000003b0: e988 7340 d07c ac40 bc1b 7a40 7138 ff40
000003c0: 64d3 a140 468a de40 c85f 4f40 7e57 4140
000003d0: 9e68 a940 df8f b940 2677 bf40 5af2 c840
000003e0: 3a72 d940 6592 f040 e586 f840 7a5c e740
000003f0: dc78 d940 0a0a 8c40 c0d0 8f40 8e60 8a40

encode.rnn_cell.mu f4 [32, 32]
0.77692586 0.37381017 0.70206606 0.6838801 0.5755579 0.310232 0.43540242 0.5263625
0.36600056 0.63851225 0.3649793 0.76445234 0.37661886 0.40498748 0.48274088 0.3492953
0.44790077 0.34471893 0.76434493 0.65035474 0.7011478 0.47267193 0.625689 0.6772145
0.5442498 0.5032756 0.30902907 0.6398737 0.34148306 0.5084979 0.50273323 0.46512106
0.7215588 0.42757532 0.64025736 0.4528279 0.35450011 0.6747349 0.49135506 0.5133774
0.6847924 0.70214903 0.54825425 0.70329314 0.39088103 0.38720688 0.39051425 0.38943076
0.6043951 0.5171846 0.5816177 0.67019904 0.48413023 0.37687257 0.36751997 0.6321429
0.7616569 0.30209696 0.7255901 0.3482308 0.62860185 0.7600019 0.7853205 0.55986404
0.60766935 0.7362889 0.33003825 0.5648788 0.67054343 0.59900904 0.3797622 0.66469836
0.5786866 0.7673454 0.7354127 0.54669917 0.79592323 0.4569765 0.32045448 0.7016909
0.6140689 0.37091467 0.4244916 0.52787554 0.48228493 0.72106814 0.75013757 0.4655027
0.43565762 0.63652265 0.54025376 0.35438737 0.3861678 0.76844096 0.41901225 0.6776062
0.5830991 0.3935176 0.76161075 0.67385656 0.38127655 0.55927765 0.65181756 0.4586787
0.37670866 0.7238506 0.49635133 0.44596046 0.32281315 0.4618032 0.5494988 0.6489278
0.7644587 0.6893447 0.4745907 0.37851012 0.75326705 0.3402495 0.40199316 0.3101059
0.5732841 0.7726327 0.43642214 0.7975162 0.43435127 0.38101614 0.7025659 0.6500509
0.59626776 0.5652816 0.790913 0.55263174 0.44536647 0.7472728 0.64855576 0.66264683
0.68783 0.7422129 0.5737264 0.35635036 0.5922656 0.66894585 0.6814947 0.6549072
0.7760318 0.75374097 0.49643582 0.4045202 0.5259313 0.4111839 0.42369607 0.55773973
0.5940685 0.6807221 0.45406362 0.3038582 0.33325255 0.35878855 0.57694185 0.7739608
0.3761152 0.35755244 0.6606661 0.3518252 0.4615055 0.5608001 0.30719027 0.76688033
0.30197585 0.7508473 0.69148886 0.6102791 0.30349633 0.5066024 0.30951586 0.30060968
0.5955448 0.59998035 0.58375525 0.7494004 0.797545 0.3267056 0.7295346 0.390489
0.76065826 0.7113874 0.6500083 0.4479711 0.37179002 0.5990913 0.5577247 0.56755435
0.67724705 0.7711825 0.5758681 0.61415476 0.73489195 0.5730332 0.56511676 0.30386376
0.384949 0.73513794 0.5209222 0.6918334 0.3129103 0.7130815 0.60878706 0.7075608
0.5996671 0.7145096 0.5365679 0.4242671 0.7311709 0.56515926 0.78203744 0.3505395
0.5836979 0.56739193 0.51018536 0.6976537 0.47378838 0.60264647 0.5017569 0.78085876
0.7442462 0.36490563 0.6221945 0.6651268 0.573432 0.53297806 0.3781768 0.5540905
0.32068413 0.68771976 0.73118806 0.31900913 0.32841682 0.74117386 0.50913584 0.5538658
0.53612155 0.46427786 0.4604329 0.564658 0.7662734 0.44544178 0.3481993 0.63498473
0.3049719 0.5384282 0.4034427 0.4020356 0.5987278 0.41154918 0.7968855 0.48368073
00000000: 9de4 463f 0c64 bf3e 9aba 333f c412 2f3f
00000010: c357 133f bbd6 9e3e 11ed de3e b1bf 063f
00000020: 6d64 bb3e 8a75 233f 91de ba3e 26b3 433f
00000030: 30d4 c03e 855a cf3e d029 f73e d5d6 b23e
00000040: 4053 e53e 007f b03e 1cac 433f a67d 263f
00000050: 6c7e 333f 0e02 f23e 282d 203f ee5d 2d3f
00000060: f453 0b3f abd6 003f 0f39 9e3e c3ce 233f
00000070: ded6 ae3e eb2c 023f 20b3 003f 5924 ee3e
00000080: 14b8 383f 27eb da3e e8e7 233f 0fd9 e73e
00000090: 0a81 b53e 6dbb 2c3f e492 fb3e b46c 033f
000000a0: 8e4e 2f3f 0ac0 333f 645a 0c3f 050b 343f
000000b0: 8f21 c83e fb3f c63e 7cf1 c73e 7863 c73e
000000c0: a3b9 1a3f 3666 043f e6e4 143f 2a92 2b3f
000000d0: ebdf f73e 71f5 c03e 942b bc3e 1ed4 213f
000000e0: f2fb 423f 74ac 9a3e 46c0 393f 4f4b b23e
000000f0: 0dec 203f 7c8f 423f c40a 493f 4053 0f3f
00000100: 3890 1b3f 6e7d 3c3f c6fa a83e e69b 103f
00000110: bca8 2b3f a858 193f 3170 c23e ac29 2a3f
00000120: ce24 143f c070 443f 0244 3c3f 7af4 0b3f
00000130: a0c1 4b3f d3f8 e93e 9c12 a43e 04a2 333f
00000140: 9f33 1d3f 87e8 bd3e f756 d93e da22 073f
00000150: 0dee f63e ec97 383f 0409 403f 5f56 ee3e
00000160: 840e df3e 26f3 223f 124e 0a3f 4372 b53e
00000170: c9b7 c53e 8cb8 443f c688 d63e 9a77 2d3f
00000180: fc45 153f 247b c93e ecf8 423f dd81 2c3f
00000190: ae36 c33e d22c 0f3f 84dd 263f efd7 ea3e
000001a0: f5df c03e 464e 393f c321 fe3e ee54 e43e
000001b0: c447 a53e 7871 ec3e f4ab 0c3f 2220 263f
000001c0: 91b3 433f e578 303f 8dfd f23e 14cc c13e
000001d0: 1cd6 403f 2f35 ae3e 0cd2 cd3e 33c6 9e3e
000001e0: bfc2 123f 42cb 453f b972 df3e 062a 4c3f
000001f0: 4a63 de3e 8c14 c33e 5cdb 333f bc69 263f
00000200: 01a5 183f 4cb6 103f 4679 4a3f 4679 0d3f
00000210: 1307 e43e 454d 3f3f c007 263f 39a3 293f
00000220: a015 303f aa01 3e3f bcdf 123f 8e73 b63e
00000230: b89e 173f 0940 2b3f 7076 2e3f 00a8 273f
00000240: 05aa 463f 2bf5 403f d62c fe3e 461d cf3e
00000250: 6fa3 063f b286 d23e b1ee d83e 08c8 0e3f
00000260: e014 183f ce43 2e3f 077b e83e 4d93 9b3e
00000270: 14a0 aa3e 22b3 b73e 76b2 133f 4c22 463f
00000280: 2c92 c03e 1d11 b73e 6a21 293f 6f22 b43e
00000290: 734a ec3e 9890 0f3f 0b48 9d3e 4552 443f
000002a0: 949c 9a3e 8737 403f 6a05 313f 403b 1c3f
000002b0: df63 9b3e b2b0 013f dd78 9e3e 83e9 993e
000002c0: a075 183f 5098 193f fc70 153f b4d8 3f3f
000002d0: e92b 4c3f f545 a73e c8c2 3a3f 2dee c73e
000002e0: 80ba 423f 7c1d 363f f266 263f 785c e53e
000002f0: 435b be3e 0c5e 193f 0cc7 0e3f 3e4b 113f
00000300: 1060 2d3f 376c 453f 186c 133f 3f39 1d3f
00000310: e121 3c3f 4eb2 123f 7eab 103f 0894 9b3e
00000320: 0918 c53e 0032 3c3f 285b 053f fe1b 313f
00000330: c735 a03e 828c 363f 78d9 1b3f b422 353f
00000340: c883 193f 1aea 363f 845c 093f 8a39 d93e
00000350: 042e 3b3f 47ae 103f 9b33 483f ea79 b33e
00000360: 3a6d 153f 9940 113f 829b 023f 6f99 323f
00000370: 6494 f23e 0a47 1a3f 2473 003f 5ce6 473f
00000380: eb86 3e3f e9d4 ba3e 2448 1f3f c045 2a3f
00000390: 71cc 123f 4071 083f 64a0 c13e e0d8 0d3f
000003a0: b630 a43e 670e 303f 242f 3b3f 2a55 a33e
000003b0: 4026 a83e 92bd 3d3f ba56 023f 26ca 0d3f
000003c0: 433f 093f d4b5 ed3e dcbd eb3e 6d8d 103f
000003d0: 7e2a 443f f210 e43e 2e47 b23e 5c8e 223f
000003e0: 4725 9c3e 6ed6 093f 0b90 ce3e 9cd7 cd3e
000003f0: 3a46 193f 93b6 d23e b000 4c3f 00a5 f73e

encode.rnn_cell.w f4 [32, 32]
0.99115694 0.9857512 0.38852093 0.6330799 0.60754204 0.45013294 0.44217518 0.007947522
0.88117176 0.056248065 0.67962456 0.063985616 0.16189207 0.81565607 0.3801707 0.03851372
0.5576987 0.41681394 0.98356676 0.018692533 0.57188314 0.40923706 0.43053046 0.6476519
0.90265495 0.19096845 0.43436295 0.13625716 0.20291147 0.7755264 0.49793762 0.11236537
0.04065143 0.28591868 0.25364032 0.6596494 0.61864674 0.28281495 0.9724226 0.4984013
0.9861305 0.84646535 0.49628448 0.5243681 0.4278382 0.0046237204 0.313775 0.21457821
0.09051062 0.9503651 0.8062047 0.33551234 0.87619954 0.23151797 0.26401567 0.1799295
0.6332715 0.7632107 0.35698187 0.1377878 0.9518678 0.970351 0.7630909 0.36395192
0.8228585 0.14490166 0.902513 0.7422478 0.8441584 0.25528604 0.45976487 0.9921163
0.19087866 0.37118936 0.51761425 0.55128044 0.6664452 0.52560645 0.20233864 0.092491195
0.74446285 0.75565857 0.53006953 0.41259024 0.42399463 0.1438234 0.3385443 0.52934873
0.039714936 0.8157921 0.09490867 0.49683547 0.9147609 0.6066139 0.27577 0.68235713
0.13691583 0.18824911 0.48759416 0.4371877 0.091060236 0.23915604 0.748615 0.81438035
0.16033748 0.04196797 0.99013567 0.7790006 0.6504301 0.34628686 0.35618684 0.10449432
0.22564755 0.30560714 0.05049404 0.86591417 0.93061036 0.47901672 0.29051262 0.7695607
0.89244723 0.30605125 0.9683715 0.13547878 0.5673894 0.98838264 0.8278537 0.7459261
0.8317567 0.7592587 0.2434282 0.14414905 0.91807085 0.80010724 0.03272518 0.3437029
0.27207723 0.43660673 0.91217846 0.9915571 0.14589128 0.19339563 0.67625797 0.35838228
0.7123406 0.96954507 0.73213214 0.16241702 0.8808529 0.8581305 0.41679612 0.5703217
0.252833 0.2559961 0.42596075 0.92751944 0.0686381 0.05776035 0.6530227 0.5832422
0.75900453 0.96652275 0.6723183 0.43094072 0.035884425 0.380445 0.09253768 0.29155853
0.017679524 0.57041645 0.17201787 0.23072632 0.57412547 0.6772118 0.13034314 0.5129248
0.6304017 0.45129448 0.2742804 0.19643326 0.21598573 0.7053181 0.30043745 0.7481007
0.8887987 0.12714617 0.28550878 0.6833919 0.5786096 0.62086886 0.34923205 0.8190925
0.53096265 0.5069363 0.9529568 0.18335678 0.87583166 0.62116003 0.11046564 0.80997723
0.86805195 0.22756705 0.30631593 0.73301435 0.23092687 0.5926195 0.25421754 0.21064949
0.48428208 0.2825554 0.5407317 0.33403957 0.14840122 0.38370237 0.7429417 0.5514109
0.5233016 0.69172984 0.6213434 0.8886759 0.07693078 0.44370073 0.5755475 0.30274215
0.6790465 0.37378484 0.95357203 0.49906227 0.2498684 0.36284637 0.83518136 0.07412124
0.81371176 0.9629503 0.40143073 0.69749516 0.45018414 0.9909367 0.7487151 0.62223387
0.115360245 0.33411196 0.2519499 0.12215679 0.78502893 0.8137954 0.81940967 0.24684721
0.33660588 0.1367079 0.97751564 0.15076105 0.16373469 0.8645771 0.13864562 0.08239563
00000000: 76bc 7d3f 315a 7c3f 37ec c63e 8611 223f
00000010: e087 1b3f d377 e63e c964 e23e 5336 023c
00000020: 7994 613f 5f64 663d e0fb 2d3f e40a 833d
00000030: 09c7 253e d6ce 503f bca5 c23e 90c0 1d3d
00000040: 58c5 0e3f a368 d53e 08cb 7b3f 1521 993c
00000050: ef66 123f 8587 d13e 7d6e dc3e 84cc 253f
00000060: 6514 673f 3c8d 433e d264 de3e ff86 0b3e
00000070: 06c8 4f3e e688 463f aef1 fe3e d11f e63d
00000080: 1d82 263d ef63 923e 25dd 813e c8de 283f
00000090: a25f 1e3f 1fcd 903e b0f0 783f 752e ff3e
000000a0: 0c73 7c3f f4b1 583f 0019 fe3e fd3c 063f
000000b0: 9c0d db3e 9482 973b 1ea7 a03e 64ba 5b3e
000000c0: a25d b93d 214b 733f 6e63 4e3f 46c8 ab3e
000000d0: 9d4e 603f 0c13 6d3e 102d 873e 703f 383e
000000e0: 151e 223f c761 433f 54c6 b63e 3f18 0d3e
000000f0: 9cad 733f ec68 783f ed59 433f e857 ba3e
00000100: dba6 523f 1a61 143e 180b 673f f403 3e3f
00000110: c41a 583f dab4 823e 4d66 eb3e 55fb 7d3f
00000120: b275 433e 880c be3e 5e82 043f b720 0d3f
00000130: 279c 2a3f 258e 063f dc31 4f3e 066c bd3d
00000140: 1e95 3e3f d772 413f a3b2 073f 073f d33e
00000150: d315 d93e 7146 133e ae55 ad3e 6683 073f
00000160: 21ac 223d c0d7 503f 7a5f c23d 3861 fe3e
00000170: c52d 6a3f 0c4b 1b3f ba31 8d3e f5ae 2e3f
00000180: aa33 0c3e 60c4 403e f1a5 f93e 11d7 df3e
00000190: ca7d ba3d 52e5 743e 3ca5 3f3f 3b7b 503f
000001a0: 822f 243e 9be6 2b3d 8879 7d3f 956c 473f
000001b0: 9682 263f 834c b13e 1f5e b63e 1e01 d63d
000001c0: 2710 673e 8a78 9c3e d7d2 4e3d 8dac 5d3f
000001d0: 7b3c 6e3f ae41 f53e 12be 943e ee01 453f
000001e0: 6c77 643f c0b2 9c3e 32e7 773f f3ba 0a3e
000001f0: 6f40 113f a506 7d3f 38ee 533f 03f5 3e3f
00000200: 02ee 543f c75e 423f 3e45 793e cf9b 133e
00000210: b106 6b3f d4d3 4c3f d70a 063d d4f9 af3e
00000220: b54d 8b3e eb8a df3e 8784 693f b0d6 7d3f
00000230: 8664 153e 8109 463e 3e1f 2d3f e27d b73e
00000240: f45b 363f 1b34 783f 036d 3b3f a650 263e
00000250: 937f 613f 71ae 5b3f 4d66 d53e 9a00 123f
00000260: 5473 813e ec11 833e 8717 da3e ea71 6d3f
00000270: 2292 8c3d 1e96 6c3d 7f2c 273f 5c4f 153f
00000280: 1f4e 423f 096e 773f 0d1d 2c3f 43a4 dc3e
00000290: 8cfb 123d b0c9 c23e 6584 bd3d 2947 953e
000002a0: a6d4 903c d006 123f 7425 303e 8543 6c3e
000002b0: e3f9 123f c15d 2d3f ac78 053e 0a4f 033f
000002c0: 0162 213f 1210 e73e 7b6e 8c3e cd25 493e
000002d0: 5d2b 5d3e ba8f 343f f0d2 993e 8783 3f3f
000002e0: 5088 633f 9b32 023e 352e 923e c6f2 2e3f
000002f0: c21f 143f 43f1 1e3f 8bce b23e 0cb0 513f
00000300: 2bed 073f 94c6 013f faf4 733f e1c1 3b3e
00000310: 8136 603f 5804 1f3f cf3b e23d ab5a 4f3f
00000320: a738 5e3f 5607 693e 71d5 9c3e d4a6 3b3f
00000330: 1878 6c3e e9b5 173f cd28 823e 80b4 573e
00000340: d2f3 f73e 1aab 903e 656d 0a3f 3c07 ab3e
00000350: 7df6 173e a374 c43e 6d31 3e3f 4429 0d3f
00000360: 18f7 053f 3515 313f 5c10 1f3f 4480 633f
00000370: e38d 9d3d be2c e33e 1557 133f 0501 9b3e
00000380: fed5 2d3f ba60 bf3e 4c1d 743f 1785 ff3e
00000390: 80dd 7f3e 00c7 b93e 72ce 553f e0cc 973d
000003a0: 6a4f 503f e983 763f 5488 cd3e 0b8f 323f
000003b0: 897e e63e 07ae 7d3f cbab 3f3f b84a 1f3f
000003c0: fe41 ec3d b910 ab3e 94ff 803e 572d fa3d
000003d0: a8f7 483f e554 503f d5c4 513f 84c5 7c3e
000003e0: 9b57 ac3e 28fd 0b3e 773e 7a3f 1b61 1a3e
000003f0: 11aa 273e ed54 5d3f 1ef9 0d3e 0abf a83d

encode.rnn_cell.erev f4 [32, 32]
0.0 0.0 0.0 0.0 0.0 0.0 0.0 0.0
0.0 0.0 0.0 0.0 0.0 0.0 0.0 0.0
0.0 0.0 0.0 0.0 0.0 0.0 0.0 0.0
0.0 0.0 0.0 0.0 0.0 0.0 0.0 0.0
0.0 0.0 0.0 0.0 0.0 0.0 0.0 0.0
0.0 0.0 0.0 0.0 0.0 0.0 0.0 0.0
0.0 0.0 0.0 0.0 0.0 0.0 0.0 0.0
0.0 0.0 0.0 0.0 0.0 0.0 0.0 0.0
0.0 0.0 0.0 0.0 0.0 0.0 0.0 0.0
0.0 0.0 0.0 0.0 0.0 0.0 0.0 0.0
0.0 0.0 0.0 0.0 0.0 0.0 0.0 0.0
0.0 0.0 0.0 0.0 0.0 0.0 0.0 0.0
0.0 0.0 0.0 0.0 0.0 0.0 0.0 0.0
0.0 0.0 0.0 0.0 0.0 0.0 0.0 0.0
0.0 0.0 0.0 0.0 0.0 0.0 0.0 0.0
0.0 0.0 0.0 0.0 0.0 0.0 0.0 0.0
0.0 0.0 0.0 0.0 0.0 0.0 0.0 0.0
0.0 0.0 0.0 0.0 0.0 0.0 0.0 0.0
0.0 0.0 0.0 0.0 0.0 0.0 0.0 0.0
0.0 0.0 0.0 0.0 0.0 0.0 0.0 0.0
0.0 0.0 0.0 0.0 0.0 0.0 0.0 0.0
0.0 0.0 0.0 0.0 0.0 0.0 0.0 0.0
0.0 0.0 0.0 0.0 0.0 0.0 0.0 0.0
0.0 0.0 0.0 0.0 0.0 0.0 0.0 0.0
0.0 0.0 0.0 0.0 0.0 0.0 0.0 0.0
0.0 0.0 0.0 0.0 0.0 0.0 0.0 0.0
0.0 0.0 0.0 0.0 0.0 0.0 0.0 0.0
0.0 0.0 0.0 0.0 0.0 0.0 0.0 0.0
0.0 0.0 0.0 0.0 0.0 0.0 0.0 0.0
0.0 0.0 0.0 0.0 0.0 0.0 0.0 0.0
0.0 0.0 0.0 0.0 0.0 0.0 0.0 0.0
0.0 0.0 0.0 0.0 0.0 0.0 0.0 0.0
00000000: 0000 0000 0000 0000 0000 0000 0000 0000
00000010: 0000 0000 0000 0000 0000 0000 0000 0000
00000020: 0000 0000 0000 0000 0000 0000 0000 0000
00000030: 0000 0000 0000 0000 0000 0000 0000 0000
00000040: 0000 0000 0000 0000 0000 0000 0000 0000
00000050: 0000 0000 0000 0000 0000 0000 0000 0000
00000060: 0000 0000 0000 0000 0000 0000 0000 0000
00000070: 0000 0000 0000 0000 0000 0000 0000 0000
00000080: 0000 0000 0000 0000 0000 0000 0000 0000
00000090: 0000 0000 0000 0000 0000 0000 0000 0000
000000a0: 0000 0000 0000 0000 0000 0000 0000 0000
000000b0: 0000 0000 0000 0000 0000 0000 0000 0000
000000c0: 0000 0000 0000 0000 0000 0000 0000 0000
000000d0: 0000 0000 0000 0000 0000 0000 0000 0000
000000e0: 0000 0000 0000 0000 0000 0000 0000 0000
000000f0: 0000 0000 0000 0000 0000 0000 0000 0000
00000100: 0000 0000 0000 0000 0000 0000 0000 0000
00000110: 0000 0000 0000 0000 0000 0000 0000 0000
00000120: 0000 0000 0000 0000 0000 0000 0000 0000
00000130: 0000 0000 0000 0000 0000 0000 0000 0000
00000140: 0000 0000 0000 0000 0000 0000 0000 0000
00000150: 0000 0000 0000 0000 0000 0000 0000 0000
00000160: 0000 0000 0000 0000 0000 0000 0000 0000
00000170: 0000 0000 0000 0000 0000 0000 0000 0000
00000180: 0000 0000 0000 0000 0000 0000 0000 0000
00000190: 0000 0000 0000 0000 0000 0000 0000 0000
000001a0: 0000 0000 0000 0000 0000 0000 0000 0000
000001b0: 0000 0000 0000 0000 0000 0000 0000 0000
000001c0: 0000 0000 0000 0000 0000 0000 0000 0000
000001d0: 0000 0000 0000 0000 0000 0000 0000 0000
000001e0: 0000 0000 0000 0000 0000 0000 0000 0000
000001f0: 0000 0000 0000 0000 0000 0000 0000 0000
00000200: 0000 0000 0000 0000 0000 0000 0000 0000
00000210: 0000 0000 0000 0000 0000 0000 0000 0000
00000220: 0000 0000 0000 0000 0000 0000 0000 0000
00000230: 0000 0000 0000 0000 0000 0000 0000 0000
00000240: 0000 0000 0000 0000 0000 0000 0000 0000
00000250: 0000 0000 0000 0000 0000 0000 0000 0000
00000260: 0000 0000 0000 0000 0000 0000 0000 0000
00000270: 0000 0000 0000 0000 0000 0000 0000 0000
00000280: 0000 0000 0000 0000 0000 0000 0000 0000
00000290: 0000 0000 0000 0000 0000 0000 0000 0000
000002a0: 0000 0000 0000 0000 0000 0000 0000 0000
000002b0: 0000 0000 0000 0000 0000 0000 0000 0000
000002c0: 0000 0000 0000 0000 0000 0000 0000 0000
000002d0: 0000 0000 0000 0000 0000 0000 0000 0000
000002e0: 0000 0000 0000 0000 0000 0000 0000 0000
000002f0: 0000 0000 0000 0000 0000 0000 0000 0000
00000300: 0000 0000 0000 0000 0000 0000 0000 0000
00000310: 0000 0000 0000 0000 0000 0000 0000 0000
00000320: 0000 0000 0000 0000 0000 0000 0000 0000
00000330: 0000 0000 0000 0000 0000 0000 0000 0000
00000340: 0000 0000 0000 0000 0000 0000 0000 0000
00000350: 0000 0000 0000 0000 0000 0000 0000 0000
00000360: 0000 0000 0000 0000 0000 0000 0000 0000
00000370: 0000 0000 0000 0000 0000 0000 0000 0000
00000380: 0000 0000 0000 0000 0000 0000 0000 0000
00000390: 0000 0000 0000 0000 0000 0000 0000 0000
000003a0: 0000 0000 0000 0000 0000 0000 0000 0000
000003b0: 0000 0000 0000 0000 0000 0000 0000 0000
000003c0: 0000 0000 0000 0000 0000 0000 0000 0000
000003d0: 0000 0000 0000 0000 0000 0000 0000 0000
000003e0: 0000 0000 0000 0000 0000 0000 0000 0000
000003f0: 0000 0000 0000 0000 0000 0000 0000 0000

encode.rnn_cell.sensory_sigma f4 [1, 32]
4.6816473 5.5078936 3.3206785 7.315739 6.732329 4.1678586 7.044091 4.757901
7.343222 5.34311 3.4283562 7.594513 5.8822384 6.2389874 5.478915 3.5735528
5.7486954 4.956479 5.6147785 3.5291965 4.532568 4.7279625 6.7011747 5.0802617
4.2918787 5.0908914 6.7872443 5.917464 3.9736073 7.590467 4.808537 3.2624474
00000000: 0ed0 9540 aa40 b040 ff85 5440 891a ea40
00000010: 3d6f d740 195f 8540 3269 e140 ba40 9840
00000020: adfb ea40 c2fa aa40 306a 5b40 4006 f340
00000030: 4c3b bc40 c9a5 c740 4653 af40 17b5 6440
00000040: 50f5 b740 7a9b 9e40 44ac b340 5bde 6140
00000050: cc0a 9140 784b 9740 0670 d640 8191 a240
00000060: 1257 8940 95e8 a240 1b31 d940 dd5b bd40
00000070: 954f 7e40 1be5 f240 89df 9940 f0cb 5040

encode.rnn_cell.sensory_mu f4 [1, 32]
0.67177314 0.4177865 0.3976771 0.6568895 0.6652799 0.650704 0.3107832 0.3154183
0.7372335 0.55034024 0.6166371 0.65960217 0.61500245 0.7672888 0.63301337 0.36993933
0.3961267 0.72317606 0.7575773 0.33903882 0.626865 0.4259114 0.33126003 0.24716659
0.3323492 0.39923206 0.51915866 0.24749416 0.40301168 0.58523643 0.45162937 0.4686362
00000000: 53f9 2b3f 1de8 d53e 559c cb3e e929 283f
00000010: c94f 2a3f 8a94 263f fa1e 9f3e 827e a13e
00000020: 56bb 3c3f 19e3 0c3f eedb 1d3f b0db 283f
00000030: cd70 1d3f 0a6d 443f 2a0d 223f b068 bd3e
00000040: 1ed1 ca3e 1122 393f 96f0 413f 7f96 ad3e
00000050: 3a7a 203f 0f11 da3e ea9a a93e 3d19 7d3e
00000060: ad29 aa3e 2568 cc3e 95e7 043f 1c6f 7d3e
00000070: 8c57 ce3e 0ed2 153f f73b e73e 16f1 ef3e

encode.rnn_cell.sensory_w f4 [1, 32]
0.48888126 0.4962624 0.93424624 0.0142745925 0.44622275 0.5326127 0.80246425 0.16825326
0.8529188 0.36773425 0.5421311 0.029842058 0.5895767 0.56364715 0.16725588 0.7291944
0.77759963 0.716761 0.88258654 0.47769964 0.6678621 0.45568076 0.43803042 0.34657776
0.72804797 0.835445 0.60624427 0.60885966 0.680121 0.68328136 1.0272763 0.042673673
00000000: a54e fa3e 1b16 fe3e c32a 6f3f fbdf 693c
00000010: 4f77 e43e 4e59 083f 4c6e 4d3f 954a 2c3e
00000020: e358 5a3f aa47 bc3e 1bc9 0a3f 5577 f43c
00000030: 80ee 163f 2e4b 103f 2045 2b3e 7cac 3a3f
00000040: c510 473f a67d 373f 31f1 613f 0c95 f43e
00000050: 03f9 2a3f fd4e e93e 8645 e03e a472 b13e
00000060: 5a61 3a3f b9df 553f d332 1b3f 3ade 1b3f
00000070: 691c 2e3f 87eb 2e3f ca7d 833f 97ca 2e3d

encode.rnn_cell.sensory_erev f4 [1, 32]
0.0 0.0 0.0 0.0 0.0 0.0 0.0 0.0
0.0 0.0 0.0 0.0 0.0 0.0 0.0 0.0
0.0 0.0 0.0 0.0 0.0 0.0 -1.1788155 -1.1528258
-1.218825 1.0361688 1.1541996 1.1616266 -0.99597085 1.0433136 -1.1745852 -1.0104759
00000000: 0000 0000 0000 0000 0000 0000 0000 0000
00000010: 0000 0000 0000 0000 0000 0000 0000 0000
00000020: 0000 0000 0000 0000 0000 0000 0000 0000
00000030: 0000 0000 0000 0000 0000 0000 0000 0000
00000040: 0000 0000 0000 0000 0000 0000 0000 0000
00000050: 0000 0000 0000 0000 6de3 96bf cc8f 93bf
00000060: 7502 9cbf 2ea1 843f d0bc 933f 2eb0 943f
00000070: f2f7 7ebf 4d8b 853f cf58 96bf 4657 81bf

encode.rnn_cell.sparsity_mask f4 [32, 32]
0.0 0.0 0.0 0.0 0.0 0.0 0.0 0.0
0.0 0.0 0.0 0.0 0.0 0.0 0.0 0.0
0.0 0.0 0.0 0.0 0.0 0.0 0.0 0.0
0.0 0.0 0.0 0.0 0.0 0.0 0.0 0.0
0.0 0.0 0.0 0.0 0.0 0.0 0.0 0.0
0.0 0.0 0.0 0.0 0.0 0.0 0.0 0.0
0.0 0.0 0.0 0.0 0.0 0.0 0.0 0.0
0.0 0.0 0.0 0.0 0.0 0.0 0.0 0.0
0.0 0.0 0.0 0.0 0.0 0.0 0.0 0.0
0.0 0.0 0.0 0.0 0.0 0.0 0.0 0.0
0.0 0.0 0.0 0.0 0.0 0.0 0.0 0.0
0.0 0.0 0.0 0.0 0.0 0.0 0.0 0.0
0.0 0.0 0.0 0.0 0.0 0.0 0.0 0.0
0.0 0.0 0.0 0.0 0.0 0.0 0.0 0.0
0.0 0.0 0.0 0.0 0.0 0.0 0.0 0.0
0.0 0.0 0.0 0.0 0.0 0.0 0.0 0.0
0.0 0.0 0.0 0.0 0.0 0.0 0.0 0.0
0.0 0.0 0.0 0.0 0.0 0.0 0.0 0.0
0.0 0.0 0.0 0.0 0.0 0.0 0.0 0.0
0.0 0.0 0.0 0.0 0.0 0.0 0.0 0.0
0.0 0.0 0.0 0.0 0.0 0.0 0.0 0.0
0.0 0.0 0.0 0.0 0.0 0.0 0.0 0.0
0.0 0.0 0.0 0.0 0.0 0.0 0.0 0.0
0.0 0.0 0.0 0.0 0.0 0.0 0.0 0.0
0.0 0.0 0.0 0.0 0.0 0.0 0.0 0.0
0.0 0.0 0.0 0.0 0.0 0.0 0.0 0.0
0.0 0.0 0.0 0.0 0.0 0.0 0.0 0.0
0.0 0.0 0.0 0.0 0.0 0.0 0.0 0.0
0.0 0.0 0.0 0.0 0.0 0.0 0.0 0.0
0.0 0.0 0.0 0.0 0.0 0.0 0.0 0.0
0.0 0.0 0.0 0.0 0.0 0.0 0.0 0.0
0.0 0.0 0.0 0.0 0.0 0.0 0.0 0.0
00000000: 0000 0000 0000 0000 0000 0000 0000 0000
00000010: 0000 0000 0000 0000 0000 0000 0000 0000
00000020: 0000 0000 0000 0000 0000 0000 0000 0000
00000030: 0000 0000 0000 0000 0000 0000 0000 0000
00000040: 0000 0000 0000 0000 0000 0000 0000 0000
00000050: 0000 0000 0000 0000 0000 0000 0000 0000
00000060: 0000 0000 0000 0000 0000 0000 0000 0000
00000070: 0000 0000 0000 0000 0000 0000 0000 0000
00000080: 0000 0000 0000 0000 0000 0000 0000 0000
00000090: 0000 0000 0000 0000 0000 0000 0000 0000
000000a0: 0000 0000 0000 0000 0000 0000 0000 0000
000000b0: 0000 0000 0000 0000 0000 0000 0000 0000
000000c0: 0000 0000 0000 0000 0000 0000 0000 0000
000000d0: 0000 0000 0000 0000 0000 0000 0000 0000
000000e0: 0000 0000 0000 0000 0000 0000 0000 0000
000000f0: 0000 0000 0000 0000 0000 0000 0000 0000
00000100: 0000 0000 0000 0000 0000 0000 0000 0000
00000110: 0000 0000 0000 0000 0000 0000 0000 0000
00000120: 0000 0000 0000 0000 0000 0000 0000 0000
00000130: 0000 0000 0000 0000 0000 0000 0000 0000
00000140: 0000 0000 0000 0000 0000 0000 0000 0000
00000150: 0000 0000 0000 0000 0000 0000 0000 0000
00000160: 0000 0000 0000 0000 0000 0000 0000 0000
00000170: 0000 0000 0000 0000 0000 0000 0000 0000
00000180: 0000 0000 0000 0000 0000 0000 0000 0000
00000190: 0000 0000 0000 0000 0000 0000 0000 0000
000001a0: 0000 0000 0000 0000 0000 0000 0000 0000
000001b0: 0000 0000 0000 0000 0000 0000 0000 0000
000001c0: 0000 0000 0000 0000 0000 0000 0000 0000
000001d0: 0000 0000 0000 0000 0000 0000 0000 0000
000001e0: 0000 0000 0000 0000 0000 0000 0000 0000
000001f0: 0000 0000 0000 0000 0000 0000 0000 0000
00000200: 0000 0000 0000 0000 0000 0000 0000 0000
00000210: 0000 0000 0000 0000 0000 0000 0000 0000
00000220: 0000 0000 0000 0000 0000 0000 0000 0000
00000230: 0000 0000 0000 0000 0000 0000 0000 0000
00000240: 0000 0000 0000 0000 0000 0000 0000 0000
00000250: 0000 0000 0000 0000 0000 0000 0000 0000
00000260: 0000 0000 0000 0000 0000 0000 0000 0000
00000270: 0000 0000 0000 0000 0000 0000 0000 0000
00000280: 0000 0000 0000 0000 0000 0000 0000 0000
00000290: 0000 0000 0000 0000 0000 0000 0000 0000
000002a0: 0000 0000 0000 0000 0000 0000 0000 0000
000002b0: 0000 0000 0000 0000 0000 0000 0000 0000
000002c0: 0000 0000 0000 0000 0000 0000 0000 0000
000002d0: 0000 0000 0000 0000 0000 0000 0000 0000
000002e0: 0000 0000 0000 0000 0000 0000 0000 0000
000002f0: 0000 0000 0000 0000 0000 0000 0000 0000
00000300: 0000 0000 0000 0000 0000 0000 0000 0000
00000310: 0000 0000 0000 0000 0000 0000 0000 0000
00000320: 0000 0000 0000 0000 0000 0000 0000 0000
00000330: 0000 0000 0000 0000 0000 0000 0000 0000
00000340: 0000 0000 0000 0000 0000 0000 0000 0000
00000350: 0000 0000 0000 0000 0000 0000 0000 0000
00000360: 0000 0000 0000 0000 0000 0000 0000 0000
00000370: 0000 0000 0000 0000 0000 0000 0000 0000
00000380: 0000 0000 0000 0000 0000 0000 0000 0000
00000390: 0000 0000 0000 0000 0000 0000 0000 0000
000003a0: 0000 0000 0000 0000 0000 0000 0000 0000
000003b0: 0000 0000 0000 0000 0000 0000 0000 0000
000003c0: 0000 0000 0000 0000 0000 0000 0000 0000
000003d0: 0000 0000 0000 0000 0000 0000 0000 0000
000003e0: 0000 0000 0000 0000 0000 0000 0000 0000
000003f0: 0000 0000 0000 0000 0000 0000 0000 0000

encode.rnn_cell.sensory_sparsity_mask f4 [1, 32]
0.0 0.0 0.0 0.0 0.0 0.0 0.0 0.0
0.0 0.0 0.0 0.0 0.0 0.0 0.0 0.0
0.0 0.0 0.0 0.0 0.0 0.0 1.0 1.0
1.0 1.0 1.0 1.0 1.0 1.0 1.0 1.0
00000000: 0000 0000 0000 0000 0000 0000 0000 0000
00000010: 0000 0000 0000 0000 0000 0000 0000 0000
00000020: 0000 0000 0000 0000 0000 0000 0000 0000
00000030: 0000 0000 0000 0000 0000 0000 0000 0000
00000040: 0000 0000 0000 0000 0000 0000 0000 0000
00000050: 0000 0000 0000 0000 0000 803f 0000 803f
00000060: 0000 803f 0000 803f 0000 803f 0000 803f
00000070: 0000 803f 0000 803f 0000 803f 0000 803f

encode.rnn_cell.output_w f4 [16]
1.1930581 1.1479138 1.133635 1.0108713 0.831897 1.13624 0.97328854 1.1338212
1.204762 1.1448272 0.9509137 1.212019 1.0605643 0.98046905 0.98045886 1.0461344
00000000: 21b6 983f d7ee 923f f41a 913f 3b64 813f
00000010: 34f7 543f 5070 913f 7029 793f 0e21 913f
00000020: a435 9a3f b389 923f 156f 733f 7023 9b3f
00000030: 92c0 873f 0500 7b3f 5aff 7a3f bbe7 853f

encode.rnn_cell.output_b f4 [16]
-0.055162977 -0.12459905 -0.0021586143 0.08171368 -0.13681735 0.023076445 -0.094917126 0.077196494
-0.035741713 0.1577848 0.056701247 0.115969874 -0.06641995 0.009184628 -0.174934 -0.0698995
00000000: 93f2 61bd c92d ffbd 8a77 0dbb 8059 a73d
00000010: d919 0cbe d00a bd3c e963 c2bd 3219 9e3d
00000020: e765 12bd 5792 213e 913f 683d 9d81 ed3d
00000030: 2f07 88bd 1f7b 163c e621 33be 7827 8fbd

decode.gleak f4 [32]
0.3397899 0.047771513 0.15905516 0.795512 0.6857224 0.04029173 0.4153702 0.2615697
0.66365707 0.9829793 0.28882828 0.55489975 0.20109539 0.07428317 0.23238759 0.36811525
0.7418193 0.73339117 0.64351857 0.15101217 0.77871364 0.42659885 0.6018573 0.79988056
0.096509755 0.63709104 0.41967097 0.3917373 0.05504025 0.2963551 0.5130365 0.4681394
00000000: f1f8 ad3e 10ac 433d 5bdf 223e ada6 4b3f
00000010: 818b 2f3f f108 253d 67ab d43e 77ec 853e
00000020: 6ee5 293f 88a4 7b3f 4de1 933e e90d 0e3f
00000030: f3eb 4d3e c621 983d 03f7 6d3e 9a79 bc3e
00000040: dfe7 3d3f 86bf 3b3f a2bd 243f efa2 1a3e
00000050: c759 473f 2a6b da3e 5213 1a3f f9c4 4c3f
00000060: e8a6 c53d 6618 233f 1ddf d63e cb91 c83e
00000070: e371 613d dbbb 973e 5c56 033f f8af ef3e

decode.vleak f4 [32]
0.06527645 -0.07439117 -0.09650908 0.07972175 -0.032135412 -0.06585639 0.17966539 -0.010105612
0.101771556 0.18360837 -0.09224603 0.0006882897 0.046480976 -0.0007668539 -0.11730919 0.06621844
0.09569054 0.0023417522 -0.11933942 0.11971744 -0.15245919 -0.07126697 -0.15272929 -0.06768953
0.19958155 0.004305741 -0.16614524 -0.03337036 -0.14850318 -0.021917403 0.20806527 0.17161411
00000000: a9af 853d 665a 98bd 8da6 c5bd 2845 a33d
00000010: 6ca0 03bd b7df 86bd 34fa 373e 0292 25bc
00000020: 9b6d d03d d503 3c3e 7deb bcbd 576e 343a
00000030: d662 3e3d b206 49ba cd3f f0bd 899d 873d
00000040: 67f9 c33d 1578 193b 3a68 f4bd 6b2e f53d
00000050: 431e 1cbe 6bf4 91bd 1165 1cbe cfa0 8abd
00000060: 1b5f 4c3e 2c17 8d3b fa21 2abe 5caf 08bd
00000070: 3811 18be 208c b3bc 100f 553e 9cbb 2f3e

decode.cm f4 [32]
0.57357234 0.47655118 0.55023074 0.36439115 0.31251553 0.4344368 0.30565974 0.3618082
0.58390576 0.5535857 0.44021988 0.28180477 0.46373692 0.6057005 0.3974563 0.6460454
0.4667068 0.6614943 0.52688146 0.5505525 0.4123495 0.43511158 0.45833623 0.32016608
0.4521925 0.5206726 0.40542433 0.3749673 0.47954613 0.4871739 0.475177 0.4850291
00000000: a3d5 123f 84fe f33e ecdb 0c3f 7a91 ba3e
00000010: 0902 a03e 806e de3e 6f7f 9c3e ed3e b93e
00000020: d97a 153f cbb7 0d3f 8064 e13e b748 903e
00000030: ed6e ed3e 300f 1b3f 647f cb3e 3b63 253f
00000040: 32f4 ee3e b157 293f b4e1 063f 02f1 0c3f
00000050: 791f d33e f2c6 de3e 0cab ea3e cfec a33e
00000060: c685 e73e cd4a 053f c793 cf3e b7fb bf3e
00000070: 1287 f53e db6e f93e 664a f33e bc55 f83e

decode.sigma f4 [32, 32]
7.6550083 3.0343459 3.0731277 5.9735155 6.9337153 6.333395 6.7122426 4.757854
3.537087 5.811996 3.2812316 5.1488876 4.7854185 4.088347 7.7111297 5.0649047
3.536841 3.852457 6.8718405 6.0892887 4.3991203 7.2918196 4.541428 3.3064547
4.3071184 4.375099 3.3573954 4.7847614 6.281619 4.810687 5.639446 5.5147457
7.213037 6.665967 3.7076218 6.6087646 5.1530347 6.9720964 4.7191405 4.9953446
3.021112 3.0083454 3.9417171 4.7130046 7.170936 3.815403 3.7854512 4.3271866
6.16381 6.4652786 6.791151 5.0197806 5.8927593 6.365951 6.6020694 3.64011
6.724394 3.7954473 5.0997524 6.415146 3.426052 5.823989 7.0613294 4.6050425
3.5463686 5.892885 3.719031 5.176814 6.8364267 3.9536376 3.278952 7.8555927
7.044852 4.174011 3.1123073 3.1994057 7.275523 3.4058957 7.978507 4.876927
5.3947387 3.7784262 3.1619802 7.062915 7.299428 7.303292 4.668229 7.937512
5.659793 6.2410126 5.846866 5.0283256 4.607647 5.29737 6.4738426 5.082121
3.7721114 5.8368254 6.7182 4.22224 5.289498 6.258283 6.309137 7.6151786
4.6133604 5.843066 3.8665977 3.6942499 4.443921 5.1971188 6.7210608 3.778208
6.1208773 4.861381 4.2490225 3.0189314 5.859013 5.0196037 7.973944 3.7747982
5.95862 6.582518 5.2463026 7.898991 7.076554 7.9309273 3.4316478 7.6635857
4.3146877 5.716895 3.3127744 7.1883583 5.690904 3.2665617 4.304891 6.570511
5.174473 4.728222 7.5448117 5.6924505 5.57085 6.8966293 5.312659 7.609276
5.0110455 5.5982456 5.57474 5.316649 5.1264772 3.1208692 4.8688116 6.0515776
3.541679 4.513877 7.300056 7.008136 6.938157 6.5200467 3.579869 7.2728205
5.833432 6.696589 7.458802 5.486744 6.213453 6.1406794 3.747206 3.734486
4.2666993 7.46927 7.348043 6.68652 4.6646767 6.1977096 3.6878016 6.192296
7.7057395 4.2366385 7.5641427 3.769622 3.7715437 3.0101826 3.2495015 5.5780797
3.9381022 7.6857867 5.342944 5.237956 3.1716926 5.6985073 5.4371533 5.9426
7.8018985 6.8792543 7.4240584 6.1275887 5.1332645 5.894572 7.868167 7.5712433
4.5070505 6.2146883 4.700057 6.3231325 7.229518 4.7215385 4.504385 3.1902544
4.349462 5.139945 3.0299058 7.3858685 6.815002 7.4770346 3.0188658 4.5744934
6.892905 7.6656127 4.62463 4.8422236 3.3007975 3.5630624 4.739532 4.1072683
4.9067144 3.367557 4.7207966 5.8249707 3.1470444 6.0433426 5.9702525 3.3976166
3.4219499 5.8478956 3.9639 7.9674516 6.742406 4.788395 6.1959047 3.6536646
6.1073136 6.8321166 5.5702953 7.051128 3.1977081 7.9585495 5.1663127 7.7196236
3.2777133 4.6216483 6.8802857 5.6788073 7.6554537 7.7450895 7.0974884 4.2202864
00000000: d4f5 f440 b932 4240 20ae 4440 0a27 bf40
00000010: ffe0 dd40 2cab ca40 b1ca d640 5740 9840
00000020: a25f 6240 dffb b940 b3ff 5140 b0c3 a440
00000030: 2622 9940 bdd3 8240 93c1 f640 b313 a240
00000040: 9a5b 6240 a88e 7640 1ee6 db40 74db c240
00000050: 98c5 8c40 9656 e940 6153 9140 f49c 5340
00000060: ead3 8940 d000 8c40 91df 5640 c41c 9940
00000070: 0603 c940 26f1 9940 5776 b440 cc78 b040
00000080: 33d1 e640 9a4f d540 ad49 6d40 007b d340
00000090: a9e5 a440 6a1b df40 3303 9740 ddd9 9f40
000000a0: e659 4140 bb88 4040 1845 7c40 efd0 9640
000000b0: 4f78 e540 902f 7440 d544 7240 5078 8a40
000000c0: ee3d c540 90e3 ce40 1c51 d940 0ba2 a040
000000d0: 7c91 bc40 dfb5 cb40 2744 d340 90f7 6840
000000e0: 3c2e d740 9ce8 7240 2c31 a340 e048 cd40
000000f0: 7044 5b40 1e5e ba40 69f6 e140 825c 9340
00000100: b4f7 6240 8492 bc40 9b04 6e40 76a8 a540
00000110: 02c4 da40 6608 7d40 59da 5140 0461 fb40
00000120: 6d6f e140 8091 8540 0b30 4740 10c3 4c40
00000130: 16d1 e840 32fa 5940 ee4f ff40 c90f 9c40
00000140: b3a1 ac40 bcd1 7140 e25d 4a40 6603 e240
00000150: ea94 e940 91b4 e940 2262 9540 1900 fe40
00000160: 061d b540 60b6 c740 8719 bb40 0be8 a040
00000170: d871 9340 0e84 a940 b829 cf40 bca0 a240
00000180: 466a 7140 46c7 ba40 7ffb d640 971c 8740
00000190: 9143 a940 db43 c840 73e4 c940 8baf f340
000001a0: a6a0 9340 66fa ba40 5676 7740 976e 6c40
000001b0: 9a34 8e40 cc4e a640 ee12 d740 29ce 7140
000001c0: 3ade c340 6f90 9b40 fef7 8740 2c36 4140
000001d0: 097d bb40 98a0 a040 8d2a ff40 4b96 7140
000001e0: 04ad be40 fda3 d240 b6e1 a740 89c4 fc40
000001f0: 2173 e240 28ca fd40 1ea0 5b40 183c f540
00000200: ec11 8a40 cef0 b640 7f04 5440 0807 e640
00000210: e31b b640 590f 5140 abc1 8940 a041 d240
00000220: 4895 a540 984d 9740 196f f140 8e28 b640
00000230: 6744 b240 30b1 dc40 4d01 aa40 307f f340
00000240: 7c5a a040 d424 b340 4564 b240 fd21 aa40
00000250: 1a0c a440 52bc 4740 4ecd 9b40 86a6 c140
00000260: deaa 6240 ae71 9040 0f9a e940 a642 e040
00000270: 6205 de40 39a4 d040 931c 6540 f2ba e840
00000280: 7aab ba40 754a d640 82ae ee40 6893 af40
00000290: 9bd4 c640 7280 c440 39d2 6f40 d201 6f40
000002a0: cd88 8840 4304 ef40 2b23 eb40 f9f7 d540
000002b0: 0845 9540 a353 c640 f104 6c40 4a27 c640
000002c0: 6b95 f640 8b92 8740 750d f240 7d41 7140
000002d0: f960 7140 d5a6 4040 d5f7 4f40 a17f b240
000002e0: de09 7c40 f7f1 f540 66f9 aa40 569d a740
000002f0: 03fd 4a40 2c5a b640 29fd ad40 c729 be40
00000300: 27a9 f940 da22 dc40 e391 ed40 3515 c440
00000310: b443 a440 55a0 bc40 06c8 fb40 a047 f240
00000320: c239 9040 bade c640 de66 9640 1a57 ca40
00000330: 3658 e740 d816 9740 ec23 9040 212d 4c40
00000340: cb2e 8b40 6e7a a440 fae9 4140 0959 ec40
00000350: 7f14 da40 de43 ef40 1935 4140 4062 9240
00000360: ae92 dc40 b34c f540 f8fc 9340 7ff3 9a40
00000370: 4440 5340 3709 6440 3faa 9740 be6e 8340
00000380: ce03 9d40 0e86 5740 c410 9740 2966 ba40
00000390: 2d69 4940 1063 c140 4f0c bf40 8d72 5940
000003a0: 3a01 5b40 f621 bb40 8ab0 7d40 5df5 fe40
000003b0: cac1 d740 883a 9940 da44 c640 a4d5 6940
000003c0: 1d6f c340 b3a0 da40 dc3f b240 d7a2 e140
000003d0: 40a7 4c40 70ac fe40 6f52 a540 2807 f740
000003e0: 0ec6 5140 8be4 9340 4d2b dc40 cab8 b540
000003f0: 7af9 f440 c6d7 f740 a01e e340 960c 8740

decode.mu f4 [32, 32]
0.78068066 0.6899122 0.796512 0.49819908 0.45565027 0.52078193 0.5443206 0.7666267
0.49109682 0.40489104 0.5175899 0.39698416 0.56289244 0.3317867 0.55632305 0.42417514
0.6952213 0.43617004 0.54994893 0.7522657 0.29980257 0.48837456 0.5174128 0.44547305
0.720949 0.79090095 0.38863656 0.3031988 0.53213495 0.31401983 0.5206565 0.36167553
0.33113554 0.6010188 0.5013009 0.7101877 0.672925 0.48843208 0.5820066 0.48295817
0.5636598 0.40891972 0.5611172 0.69899887 0.5792732 0.34779328 0.6805136 0.6151891
0.5411333 0.66378057 0.7083535 0.3057237 0.4359241 0.73946327 0.6252256 0.70790446
0.53765595 0.7608704 0.5587276 0.74941134 0.48856142 0.7497189 0.7966275 0.6682397
0.41657048 0.67317826 0.72892034 0.6266745 0.57289237 0.6347013 0.67154187 0.35685372
0.67362285 0.7861367 0.45311666 0.3552265 0.3357466 0.7044597 0.41456 0.32052252
0.7155686 0.7827036 0.47131208 0.7466445 0.39059365 0.66851956 0.45107222 0.76973194
0.58440244 0.42808685 0.47263712 0.6521696 0.7705037 0.5694043 0.653077 0.48396984
0.75111043 0.39125058 0.4721859 0.5660763 0.670436 0.44771823 0.6191342 0.43783167
0.74303985 0.53907025 0.7914065 0.3362733 0.46789214 0.6412209 0.6666578 0.370249
0.598511 0.5104967 0.3907178 0.5433694 0.72662294 0.3311904 0.6520989 0.75624883
0.35108754 0.43729794 0.63556576 0.6305312 0.40151003 0.31429031 0.7419158 0.5430898
0.6885482 0.31676444 0.5419334 0.6134122 0.562636 0.4529139 0.41439125 0.7949052
0.32168952 0.7770225 0.54419553 0.4446559 0.50769603 0.56491303 0.5566264 0.5702622
0.54475677 0.48380616 0.48922282 0.35452694 0.34370923 0.39115363 0.76080894 0.38737705
0.56363046 0.5818844 0.43013406 0.40067887 0.64983964 0.6696897 0.32515603 0.3261491
0.7500787 0.62131417 0.5147219 0.7553457 0.59726727 0.63505924 0.5074366 0.55167365
0.7632147 0.75601214 0.5552946 0.518335 0.44159055 0.34465596 0.4009286 0.6493797
0.62703705 0.30765244 0.6336873 0.5628933 0.6110143 0.44943026 0.708326 0.5924424
0.7121527 0.584676 0.6878458 0.348442 0.3354086 0.4119874 0.38270018 0.6935917
0.6999067 0.31570306 0.4179689 0.76347053 0.3304746 0.60760653 0.4044599 0.6187866
0.50671625 0.3520492 0.59876907 0.31985942 0.7612779 0.65076745 0.7577114 0.36630246
0.693625 0.6061131 0.7219185 0.6964886 0.37526336 0.4122096 0.30745977 0.3923944
0.54226035 0.6104237 0.36472464 0.39259964 0.6174401 0.741482 0.32631811 0.35485068
0.41155097 0.70885164 0.7188735 0.5819995 0.7403605 0.4265608 0.6730334 0.43051484
0.42933077 0.636289 0.47452933 0.30892217 0.5396418 0.646693 0.38558993 0.46074468
0.48336545 0.72786736 0.6308945 0.72800136 0.41368514 0.5972591 0.7533087 0.41069573
0.3025186 0.7249908 0.42133048 0.5479 0.48096976 0.6449784 0.30871958 0.32765538
00000000: b0da 473f 169e 303f 36e8 4b3f f313 ff3e
00000010: fe4a e93e f751 053f 9858 0b3f a641 443f
00000020: 0b71 fb3e e14d cf3e c680 043f 8241 cb3e
00000030: b819 103f f2df a93e 306b 0e3f 7c2d d93e
00000040: 06fa 313f ae51 df3e 74c9 0c3f 7c94 403f
00000050: b97f 993e 3b0c fa3e 2a75 043f 0b15 e43e
00000060: 1d90 383f 7c78 4a3f 5ffb c63e e03c 9b3e
00000070: ff39 083f 35c7 a03e bf49 053f 892d b93e
00000080: 998a a93e 5edc 193f 4155 003f dcce 353f
00000090: d044 2c3f c513 fa3e 62fe 143f 4b46 f73e
000000a0: 024c 103f ed5d d13e 60a5 0f3f 97f1 323f
000000b0: 404b 143f f611 b23e 2436 2e3f 087d 1d3f
000000c0: b687 0a3f 86ed 293f a856 353f d187 9c3e
000000d0: 7231 df3e 774d 3d3f c90e 203f 3a39 353f
000000e0: d2a3 093f 67c8 423f c608 0f3f 6cd9 3f3f
000000f0: b924 fa3e 94ed 3f3f c8ef 4b3f c211 2b3f
00000100: ba48 d53e 6955 2c3f 869a 3a3f bd6d 203f
00000110: 13a9 123f c97b 223f 2bea 2b3f 88b5 b63e
00000120: 8c72 2c3f 4140 493f e8fe e73e 3fe0 b53e
00000130: fae6 ab3e 7957 343f 3541 d43e 871b a43e
00000140: 812f 373f 435f 483f d14f f13e 1824 3f3f
00000150: e4fb c73e 1924 2b3f f0f2 e63e 270d 453f
00000160: 669b 153f 332e db3e 7efd f13e 96f4 263f
00000170: bb3f 453f 7bc4 113f 0e30 273f e5ca f73e
00000180: c648 403f ff51 c83e 5ac2 f13e 60ea 103f
00000190: b2a1 2b3f 533b e53e 947f 1e3f 792b e03e
000001a0: dc37 3e3f 8200 0a3f 9e99 4a3f 042c ac3e
000001b0: 8f8f ef3e 0e27 243f 16aa 2a3f 4791 bd3e
000001c0: 0438 193f e9af 023f 2a0c c83e 421a 0b3f
000001d0: f603 3a3f ca91 a93e f4ef 263f 8699 413f
000001e0: bfc1 b33e 84e5 df3e 70b4 223f 7e6a 213f
000001f0: b992 cd3e a9ea a03e 32ee 3d3f ef07 0b3f
00000200: b244 303f f32e a23e 26bc 0a3f 9508 1d3f
00000210: ea08 103f 55e4 e73e 172b d43e e87e 4b3f
00000220: 7db4 a43e f2ea 463f 6650 0b3f f0a9 e33e
00000230: 5ef8 013f 249e 103f 117f 0e3f b4fc 113f
00000240: 2e75 0b3f 71b5 f73e 6a7b fa3e 8e84 b53e
00000250: a8fa af3e 4a45 c83e 60c4 423f 4956 c63e
00000260: 164a 103f 60f6 143f 883a dc3e c825 cd3e
00000270: e45b 263f c970 2b3f da7a a63e 04fd a63e
00000280: 2805 403f 720e 1f3f d0c4 033f 565e 413f
00000290: 82e6 183f 3e93 223f 5de7 013f 7c3a 0d3f
000002a0: 0a62 433f 038a 413f c927 0e3f 9ab1 043f
000002b0: 2818 e23e bf76 b03e 8346 cd3e bf3d 263f
000002c0: 8085 203f 9f84 9d3e 5539 223f c619 103f
000002d0: 6f6b 1c3f b91b e63e da54 353f 4eaa 173f
000002e0: a44f 363f 54ad 153f aa16 303f fd66 b23e
000002f0: adba ab3e 03f0 d23e 47f1 c33e 3a8f 313f
00000300: 162d 333f d5a3 a13e 0500 d63e ce72 433f
00000310: f733 a93e 1a8c 1b3f 5e15 cf3e cc68 1e3f
00000320: 28b8 013f cb3f b43e ee48 193f 9dc4 a33e
00000330: 1ce3 423f b298 263f 60f9 413f ff8b bb3e
00000340: 6891 313f 3a2a 1b3f a7cf 383f 144d 323f
00000350: 8522 c03e 230d d33e 5e6b 9d3e ebe7 c83e
00000360: 93d1 0a3f ba44 1c3f 30bd ba3e d202 c93e
00000370: 8e10 1e3f c4d1 3d3f 2b13 a73e fdae b53e
00000380: cfb6 d23e 4d77 353f 1808 383f ebfd 143f
00000390: 4488 3d3f 2d66 da3e eb4b 2c3f 716c dc3e
000003a0: 3ed1 db3e d6e3 223f 82f5 f23e 0c2b 9e3e
000003b0: f725 0a3f ac8d 253f 0b6c c53e bae6 eb3e
000003c0: ad7b f73e 8455 3a3f 4d82 213f 4c5e 3a3f
000003d0: 8ace d33e f9e5 183f d7d8 403f b646 d23e
000003e0: b8e3 9a3e ff98 393f a1b8 d73e 2d43 0c3f
000003f0: ab41 f63e 4e1d 253f 7e10 9e3e 72c2 a73e
